…
    "model.add(Dense(10, activation='softmax'))\n",
    "\n",
    "model.compile(optimizer=SGD(lr=0.01), loss='categorical_crossentropy', metrics=['accuracy'])"
   ]
  },
  {
   "cell_type": "code",
   "execution_count": 58,
   "metadata": {},
   "outputs": [
    {
     "name": "stdout",
     "output_type": "stream",
     "text": [
      "_________________________________________________________________\n",
      "Layer (type)                 Output Shape              Param #   \n",
      "=================================================================\n",
      "conv2d_5 (Conv2D)            (None, 26, 26, 32)        320       \n",
      "_________________________________________________________________\n",
      "conv2d_6 (Conv2D)            (None, 24, 24, 64)        18496     \n",
      "_________________________________________________________________\n",
      "max_pooling2d_3 (MaxPooling2 (None, 12, 12, 64)        0         \n",
      "_________________________________________________________________\n",
      "dropout_5 (Dropout)          (None, 12, 12, 64)        0         \n",
      "_________________________________________________________________\n",
      "flatten_3 (Flatten)          (None, 9216)              0         \n",
      "_________________________________________________________________\n",
      "dense_5 (Dense)              (None, 128)               1179776   \n",
      "_________________________________________________________________\n",
      "dropout_6 (Dropout)          (None, 128)               0         \n",
      "_________________________________________________________________\n",
      "dense_6 (Dense)              (None, 10)                1290      \n",
      "=================================================================\n",
      "Total params: 1,199,882\n",
      "Trainable params: 1,199,882\n",
      "Non-trainable params: 0\n",
      "_________________________________________________________________\n"
     ]
    }
   ],
   "source": [
    "model.summary()"
   ]
  },
  {
   "cell_type": "code",
   "execution_count": 59,
   "metadata": {},
…
